risultati/TabNet/best_model_PCA.csv/network.pt (torch, 414307 bytes, 132 tensors)

tabnet.initial_bn.weight f4 [100]
1.0 1.0 1.0 1.0 1.0 1.0 1.0 1.0
1.0 1.0 1.0 1.0 1.0 1.0 1.0 1.0
1.0 1.0 1.0 1.0 1.0 1.0 1.0 1.0
1.0 1.0 1.0 1.0 1.0 1.0 1.0 1.0
1.0 1.0 1.0 1.0 1.0 1.0 1.0 1.0
1.0 1.0 1.0 1.0 1.0 1.0 1.0 1.0
1.0 1.0 1.0 1.0 1.0 1.0 1.0 1.0
1.0 1.0 1.0 1.0 1.0 1.0 1.0 1.0
1.0 1.0 1.0 1.0 1.0 1.0 1.0 1.0
1.0 1.0 1.0 1.0 1.0 1.0 1.0 1.0
1.0 1.0 1.0 1.0 1.0 1.0 1.0 1.0
1.0 1.0 1.0 1.0 1.0 1.0 1.0 1.0
1.0 1.0 1.0 1.0
00000000: 0000 803f 0000 803f 0000 803f 0000 803f
00000010: 0000 803f 0000 803f 0000 803f 0000 803f
00000020: 0000 803f 0000 803f 0000 803f 0000 803f
00000030: 0000 803f 0000 803f 0000 803f 0000 803f
00000040: 0000 803f 0000 803f 0000 803f 0000 803f
00000050: 0000 803f 0000 803f 0000 803f 0000 803f
00000060: 0000 803f 0000 803f 0000 803f 0000 803f
00000070: 0000 803f 0000 803f 0000 803f 0000 803f
00000080: 0000 803f 0000 803f 0000 803f 0000 803f
00000090: 0000 803f 0000 803f 0000 803f 0000 803f
000000a0: 0000 803f 0000 803f 0000 803f 0000 803f
000000b0: 0000 803f 0000 803f 0000 803f 0000 803f
000000c0: 0000 803f 0000 803f 0000 803f 0000 803f
000000d0: 0000 803f 0000 803f 0000 803f 0000 803f
000000e0: 0000 803f 0000 803f 0000 803f 0000 803f
000000f0: 0000 803f 0000 803f 0000 803f 0000 803f
00000100: 0000 803f 0000 803f 0000 803f 0000 803f
00000110: 0000 803f 0000 803f 0000 803f 0000 803f
00000120: 0000 803f 0000 803f 0000 803f 0000 803f
00000130: 0000 803f 0000 803f 0000 803f 0000 803f
00000140: 0000 803f 0000 803f 0000 803f 0000 803f
00000150: 0000 803f 0000 803f 0000 803f 0000 803f
00000160: 0000 803f 0000 803f 0000 803f 0000 803f
00000170: 0000 803f 0000 803f 0000 803f 0000 803f
00000180: 0000 803f 0000 803f 0000 803f 0000 803f

tabnet.initial_bn.bias f4 [100]
0.0 0.0 0.0 0.0 0.0 0.0 0.0 0.0
0.0 0.0 0.0 0.0 0.0 0.0 0.0 0.0
0.0 0.0 0.0 0.0 0.0 0.0 0.0 0.0
0.0 0.0 0.0 0.0 0.0 0.0 0.0 0.0
0.0 0.0 0.0 0.0 0.0 0.0 0.0 0.0
0.0 0.0 0.0 0.0 0.0 0.0 0.0 0.0
0.0 0.0 0.0 0.0 0.0 0.0 0.0 0.0
0.0 0.0 0.0 0.0 0.0 0.0 0.0 0.0
0.0 0.0 0.0 0.0 0.0 0.0 0.0 0.0
0.0 0.0 0.0 0.0 0.0 0.0 0.0 0.0
0.0 0.0 0.0 0.0 0.0 0.0 0.0 0.0
0.0 0.0 0.0 0.0 0.0 0.0 0.0 0.0
0.0 0.0 0.0 0.0
00000000: 0000 0000 0000 0000 0000 0000 0000 0000
00000010: 0000 0000 0000 0000 0000 0000 0000 0000
00000020: 0000 0000 0000 0000 0000 0000 0000 0000
00000030: 0000 0000 0000 0000 0000 0000 0000 0000
00000040: 0000 0000 0000 0000 0000 0000 0000 0000
00000050: 0000 0000 0000 0000 0000 0000 0000 0000
00000060: 0000 0000 0000 0000 0000 0000 0000 0000
00000070: 0000 0000 0000 0000 0000 0000 0000 0000
00000080: 0000 0000 0000 0000 0000 0000 0000 0000
00000090: 0000 0000 0000 0000 0000 0000 0000 0000
000000a0: 0000 0000 0000 0000 0000 0000 0000 0000
000000b0: 0000 0000 0000 0000 0000 0000 0000 0000
000000c0: 0000 0000 0000 0000 0000 0000 0000 0000
000000d0: 0000 0000 0000 0000 0000 0000 0000 0000
000000e0: 0000 0000 0000 0000 0000 0000 0000 0000
000000f0: 0000 0000 0000 0000 0000 0000 0000 0000
00000100: 0000 0000 0000 0000 0000 0000 0000 0000
00000110: 0000 0000 0000 0000 0000 0000 0000 0000
00000120: 0000 0000 0000 0000 0000 0000 0000 0000
00000130: 0000 0000 0000 0000 0000 0000 0000 0000
00000140: 0000 0000 0000 0000 0000 0000 0000 0000
00000150: 0000 0000 0000 0000 0000 0000 0000 0000
00000160: 0000 0000 0000 0000 0000 0000 0000 0000
00000170: 0000 0000 0000 0000 0000 0000 0000 0000
00000180: 0000 0000 0000 0000 0000 0000 0000 0000

tabnet.initial_bn.running_mean f4 [100]
0.0 0.0 0.0 0.0 0.0 0.0 0.0 0.0
0.0 0.0 0.0 0.0 0.0 0.0 0.0 0.0
0.0 0.0 0.0 0.0 0.0 0.0 0.0 0.0
0.0 0.0 0.0 0.0 0.0 0.0 0.0 0.0
0.0 0.0 0.0 0.0 0.0 0.0 0.0 0.0
0.0 0.0 0.0 0.0 0.0 0.0 0.0 0.0
0.0 0.0 0.0 0.0 0.0 0.0 0.0 0.0
0.0 0.0 0.0 0.0 0.0 0.0 0.0 0.0
0.0 0.0 0.0 0.0 0.0 0.0 0.0 0.0
0.0 0.0 0.0 0.0 0.0 0.0 0.0 0.0
0.0 0.0 0.0 0.0 0.0 0.0 0.0 0.0
0.0 0.0 0.0 0.0 0.0 0.0 0.0 0.0
0.0 0.0 0.0 0.0
00000000: 0000 0000 0000 0000 0000 0000 0000 0000
00000010: 0000 0000 0000 0000 0000 0000 0000 0000
00000020: 0000 0000 0000 0000 0000 0000 0000 0000
00000030: 0000 0000 0000 0000 0000 0000 0000 0000
00000040: 0000 0000 0000 0000 0000 0000 0000 0000
00000050: 0000 0000 0000 0000 0000 0000 0000 0000
00000060: 0000 0000 0000 0000 0000 0000 0000 0000
00000070: 0000 0000 0000 0000 0000 0000 0000 0000
00000080: 0000 0000 0000 0000 0000 0000 0000 0000
00000090: 0000 0000 0000 0000 0000 0000 0000 0000
000000a0: 0000 0000 0000 0000 0000 0000 0000 0000
000000b0: 0000 0000 0000 0000 0000 0000 0000 0000
000000c0: 0000 0000 0000 0000 0000 0000 0000 0000
000000d0: 0000 0000 0000 0000 0000 0000 0000 0000
000000e0: 0000 0000 0000 0000 0000 0000 0000 0000
000000f0: 0000 0000 0000 0000 0000 0000 0000 0000
00000100: 0000 0000 0000 0000 0000 0000 0000 0000
00000110: 0000 0000 0000 0000 0000 0000 0000 0000
00000120: 0000 0000 0000 0000 0000 0000 0000 0000
00000130: 0000 0000 0000 0000 0000 0000 0000 0000
00000140: 0000 0000 0000 0000 0000 0000 0000 0000
00000150: 0000 0000 0000 0000 0000 0000 0000 0000
00000160: 0000 0000 0000 0000 0000 0000 0000 0000
00000170: 0000 0000 0000 0000 0000 0000 0000 0000
00000180: 0000 0000 0000 0000 0000 0000 0000 0000

tabnet.initial_bn.running_var f4 [100]
1.0 1.0 1.0 1.0 1.0 1.0 1.0 1.0
1.0 1.0 1.0 1.0 1.0 1.0 1.0 1.0
1.0 1.0 1.0 1.0 1.0 1.0 1.0 1.0
1.0 1.0 1.0 1.0 1.0 1.0 1.0 1.0
1.0 1.0 1.0 1.0 1.0 1.0 1.0 1.0
1.0 1.0 1.0 1.0 1.0 1.0 1.0 1.0
1.0 1.0 1.0 1.0 1.0 1.0 1.0 1.0
1.0 1.0 1.0 1.0 1.0 1.0 1.0 1.0
1.0 1.0 1.0 1.0 1.0 1.0 1.0 1.0
1.0 1.0 1.0 1.0 1.0 1.0 1.0 1.0
1.0 1.0 1.0 1.0 1.0 1.0 1.0 1.0
1.0 1.0 1.0 1.0 1.0 1.0 1.0 1.0
1.0 1.0 1.0 1.0
00000000: 0000 803f 0000 803f 0000 803f 0000 803f
00000010: 0000 803f 0000 803f 0000 803f 0000 803f
00000020: 0000 803f 0000 803f 0000 803f 0000 803f
00000030: 0000 803f 0000 803f 0000 803f 0000 803f
00000040: 0000 803f 0000 803f 0000 803f 0000 803f
00000050: 0000 803f 0000 803f 0000 803f 0000 803f
00000060: 0000 803f 0000 803f 0000 803f 0000 803f
00000070: 0000 803f 0000 803f 0000 803f 0000 803f
00000080: 0000 803f 0000 803f 0000 803f 0000 803f
00000090: 0000 803f 0000 803f 0000 803f 0000 803f
000000a0: 0000 803f 0000 803f 0000 803f 0000 803f
000000b0: 0000 803f 0000 803f 0000 803f 0000 803f
000000c0: 0000 803f 0000 803f 0000 803f 0000 803f
000000d0: 0000 803f 0000 803f 0000 803f 0000 803f
000000e0: 0000 803f 0000 803f 0000 803f 0000 803f
000000f0: 0000 803f 0000 803f 0000 803f 0000 803f
00000100: 0000 803f 0000 803f 0000 803f 0000 803f
00000110: 0000 803f 0000 803f 0000 803f 0000 803f
00000120: 0000 803f 0000 803f 0000 803f 0000 803f
00000130: 0000 803f 0000 803f 0000 803f 0000 803f
00000140: 0000 803f 0000 803f 0000 803f 0000 803f
00000150: 0000 803f 0000 803f 0000 803f 0000 803f
00000160: 0000 803f 0000 803f 0000 803f 0000 803f
00000170: 0000 803f 0000 803f 0000 803f 0000 803f
00000180: 0000 803f 0000 803f 0000 803f 0000 803f

tabnet.encoder.initial_bn.weight f4 [100]
1.4190891 1.5053461 2.0011506 1.4218512 0.9194543 1.0606244 0.6272166 0.95108783
0.753985 1.1564822 0.85306036 1.169367 1.1843206 0.6596807 1.9039168 1.0713636
1.4788709 0.8948033 1.2397977 1.466381 1.1128796 0.80881864 0.7386575 1.185874
0.97122675 1.1418362 0.87351555 1.0110631 1.2171901 0.61194354 0.95163447 1.0715615
0.65784895 1.1281176 0.84260744 0.8847755 0.8611407 1.2387006 1.1876678 0.95834804
0.6819597 0.9292894 1.1223116 0.90531355 0.75336576 0.724058 0.2725018 0.46419472
1.0582019 1.2132405 0.7755154 0.7997608 0.66007876 1.2104149 0.45157427 1.0947928
0.96506125 0.93137807 0.42424715 1.1613466 1.2115628 0.68887997 0.51911306 0.7053981
0.85046506 0.54988116 1.176276 1.2286935 0.69361657 0.8926955 0.88650954 1.0534729
0.8205424 0.5491943 1.0341822 0.9511331 0.72640145 0.50843954 1.0859795 0.7820856
0.8075665 0.9125239 0.8594598 0.6938842 0.64378965 0.7460772 0.6458216 0.5671575
0.7836971 1.1459812 0.76585937 0.75792027 0.6428257 0.0003720555 0.86039513 -0.020585481
1.1035358 0.5771963 1.0289143 0.45854503
00000000: b6a4 b53f 2eaf c03f da12 0040 38ff b53f
00000010: 5b61 6b3f 8ac2 873f 4491 203f 7e7a 733f
00000020: 2905 413f 9c07 943f 2a62 5a3f d1ad 953f
00000030: d197 973f d6e0 283f 8cb3 f33f 7122 893f
00000040: a44b bd3f d411 653f b1b1 9e3f 5fb2 bb3f
00000050: d772 8e3f bd0e 4f3f a818 3d3f b8ca 973f
00000060: 51a2 783f b027 923f b79e 5f3f 846a 813f
00000070: e3cc 9b3f 55a8 1c3f 519e 733f ed28 893f
00000080: ca68 283f 2866 903f 1fb5 573f a680 623f
00000090: b873 5c3f be8d 9e3f 8005 983f 4c56 753f
000000a0: e994 2e3f e9e5 6d3f e8a7 8f3f a1c2 673f
000000b0: 94dc 403f dd5b 393f 5b85 8b3e eeaa ed3e
000000c0: 2973 873f 774b 9b3f 2d88 463f 20bd 4c3f
000000d0: ecfa 283f e0ee 9a3f be34 e73e 2c22 8c3f
000000e0: 410e 773f cb6e 6e3f ec36 d93e 01a7 943f
000000f0: 7d14 9b3f 705a 303f 98e4 043f f894 343f
00000100: 14b8 593f 03c5 0c3f 3690 963f d445 9d3f
00000110: db90 313f b187 643f 4af2 623f 33d8 863f
00000120: 110f 523f ff97 0c3f 1560 843f 757d 733f
00000130: 72f5 393f 1829 023f 6001 8b3f c336 483f
00000140: aebc 4e3f 2b9b 693f 8f05 5c3f 65a2 313f
00000150: 66cf 243f eafe 3e3f 9054 253f 3c31 113f
00000160: 60a0 483f 83af 923f 5c0f 443f 1007 423f
00000170: 3a90 243f 7210 c339 db42 5c3f e2a2 a8bc
00000180: a940 8d3f 23c3 133f 77b3 833f 6ac6 ea3e

tabnet.encoder.initial_bn.bias f4 [100]
-2.9930296 1.8050727 -0.4471927 0.087107204 -0.63622975 2.7647014 -2.081746 -0.20971997
-0.026471458 0.066987425 0.0041595926 -0.3483653 0.039648782 -0.033866886 0.13711685 -0.31147924
0.02122363 -0.2593697 1.6735234 0.01451133 0.28869644 -0.12975247 -0.39447403 0.0025291992
-1.88044 -0.30640537 -0.05710739 0.05528779 -0.43765557 0.032253385 0.0990195 0.09498326
0.121850386 -0.075215414 -0.3199344 0.1091098 0.34966365 0.1570525 -0.39368942 -0.05454451
0.37717912 0.03454308 -0.15457122 0.47191197 -0.56857556 0.036406863 1.2551464 1.041533
-0.0038208119 0.0196845 0.13695928 0.31391728 -0.087276876 0.07481826 0.04804952 -0.027109591
-0.15514752 0.12550712 0.01286595 0.43604344 -1.2678493 0.15101351 0.07534295 0.041963518
-0.13301614 0.1731709 -0.38626015 -0.1608591 -1.596521 0.18307568 -0.18363394 -0.08862298
0.4115439 0.04373557 -0.39794528 -0.08940764 0.07138754 0.1754539 -0.23524988 -0.005638422
-0.2856049 0.39877573 -0.099622205 0.21409744 0.093452685 -0.08709057 0.0694683 -0.13460921
-0.027791103 0.16172251 -0.27562827 -0.1680196 0.6351666 1.6524138 -0.029717099 2.248154
-0.20743217 0.008245367 0.012655639 0.12691496
00000000: cc8d 3fc0 9f0c e73f 71f6 e4be 4365 b23d
00000010: f4df 22bf def0 3040 543b 05c0 d5c0 56be
00000020: acda d8bc b430 893d 314d 883b f05c b2be
00000030: c366 223d 01b8 0abd 5c68 0c3e 357a 9fbe
00000040: 2edd ad3c 1bcc 84be 0436 d63f eec0 6d3c
00000050: 05d0 933e d5dd 04be 80f8 c9be ecc0 253b
00000060: 42b2 f0bf 2ae1 9cbe 70e9 69bd 7375 623d
00000070: 6414 e0be 201c 043d bcca ca3d 9586 c23d
00000080: b28c f93d 8a0a 9abd 71ce a3be f574 df3d
00000090: 1d07 b33e 5fd2 203e a991 c9be 106a 5fbd
000000a0: 9f1d c13e 0b7d 0d3d eb47 1ebe 729e f13e
000000b0: 2b8e 11bf 5d1f 153d a3a8 a03f f450 853f
000000c0: 9666 7abb 6341 a13c 0e3f 0c3e c4b9 a03e
000000d0: 38be b2bd 513a 993d 93cf 443d ef14 debc
000000e0: fede 1ebe f084 003e b5cb 523c 1641 df3e
000000f0: e348 a2bf 49a3 1a3e 684d 9a3d f0e1 2b3d
00000100: 6235 08be b653 313e e4c3 c5be 3fb8 24be
00000110: cd5a ccbf 3178 3b3e 890a 3cbe f77f b5bd
00000120: e2b5 d23e 1224 333d 7cbf cbbe 5a1b b7bd
00000130: a133 923d 30aa 333e 58e5 70be 83c2 b8bb
00000140: ce3a 92be 552c cc3e ba06 ccbd 5c3c 5b3e
00000150: 1f64 bf3d 8a5c b2bd 6545 8e3d ffd6 09be
00000160: 2baa e3bc 969a 253e 261f 8dbe 540d 2cbe
00000170: 479a 223f 4c82 d33f 4671 f3bc c1e1 0f40
00000180: 1969 54be 9317 073c 9959 4f3c fff5 013e

tabnet.encoder.initial_bn.running_mean f4 [100]
-0.0003590553 0.0006763152 0.00023554279 0.000121537494 -0.0002575952 4.1257365e-05 -0.00021855108 -2.124277e-05
0.0004257416 -0.0001459293 0.00040144642 -0.00049763883 0.00046177366 -7.499987e-05 -6.045246e-05 0.00010852343
1.7152357e-05 0.0007055706 0.00067111733 -8.795661e-05 0.00038568166 0.00016901623 0.00023356834 -0.00013790681
0.00035764647 1.628606e-05 -8.395568e-05 0.0003783916 9.103669e-05 -6.492554e-05 3.856106e-05 -0.00010523281
-7.785682e-05 0.00025003354 2.7948954e-05 -0.000185293 -0.00015407935 -9.132881e-05 -3.096016e-05 -0.0002216343
-0.0002826432 8.524305e-05 -0.00035252512 0.00031089218 6.406275e-05 -0.00032058478 -3.368812e-05 -0.00011093043
5.5420547e-05 3.585087e-05 7.2570576e-05 -0.00014820439 8.751232e-05 2.0030318e-05 -6.3437874e-05 0.00013284035
2.681154e-05 4.9250913e-05 1.8525476e-05 -7.5479635e-05 9.683517e-05 6.9721566e-05 0.00012616158 -2.6493915e-05
-7.9772915e-05 1.7937513e-05 -1.842196e-05 1.3297104e-06 -0.00011511017 1.5668002e-06 1.0983669e-05 -0.0001550797
-0.00012293228 3.12375e-05 -4.7822978e-05 -0.000104255145 7.997584e-05 7.186319e-05 2.1784632e-05 -6.79122e-05
0.00015231951 0.00016418486 3.235256e-05 -5.7705467e-05 2.6027832e-05 0.000105372266 4.79078e-05 6.485649e-05
4.0230652e-06 -0.00022387262 1.5776459e-05 8.293433e-05 -1.0399453e-06 0.00010851957 0.00011811633 -3.7201746e-05
2.6884038e-05 -4.808962e-05 -0.00013398152 7.3523406e-05
00000000: 963f bcb9 bf4a 313a 09fc 7639 f2e1 fe38
00000010: d80d 87b9 c20b 2d38 dc2a 65b9 8032 b2b7
00000020: 1236 df39 9904 19b9 3a79 d239 fa73 02ba
00000030: 361a f239 4049 9db8 568e 7db8 1397 e338
00000040: 68e2 8f37 0bf6 383a eced 2f3a 5875 b8b8
00000050: 5135 ca39 f339 3139 06ea 7439 149b 10b9
00000060: 7f82 bb39 0c9e 8837 5d11 b0b8 dc62 c639
00000070: f3ea be38 a228 88b8 9fbc 2138 6fb0 dcb8
00000080: 1047 a3b8 ef16 8339 ec73 ea37 364b 42b9
00000090: 5c90 21b9 c887 bfb8 38db 01b8 8166 68b9
000000a0: ba2f 94b9 84c4 b238 1fd3 b8b9 3eff a239
000000b0: 6d59 8638 2914 a8b9 584c 0db8 52a3 e8b8
000000c0: 5c73 6838 945e 1638 0831 9838 5067 1bb9
000000d0: d286 b738 c806 a837 f309 85b8 0f4b 0b39
000000e0: 58e9 e037 c492 4e38 2867 9b37 d24a 9eb8
000000f0: fc13 cb38 7b37 9238 3e4a 0439 403f deb7
00000100: c24b a7b8 8478 9637 dc88 9ab7 8078 b235
00000110: 4d67 f1b8 d84a d235 8046 3837 e49c 22b9
00000120: 62e7 00b9 0305 0338 8895 48b8 8ea3 dab8
00000130: b4b8 a738 42b5 9638 24be b637 166c 8eb8
00000140: f5b7 1f39 0a29 2c39 4cb2 0738 c608 72b8
00000150: 5856 da37 4efb dc38 9cf0 4838 9003 8838
00000160: defd 8636 59bf 6ab9 b057 8437 08ed ad38
00000170: 4094 8bb5 0095 e338 39b5 f738 1209 1cb8
00000180: 0885 e137 d6b3 49b8 647d 0cb9 9430 9a38

tabnet.encoder.initial_bn.running_var f4 [100]
2.5804408 1.2944455 1.0175374 0.6840347 0.56953734 0.47980067 0.43539155 0.3960075
0.35666588 0.2943361 0.26202852 0.23427315 0.22374247 0.21139137 0.2020509 0.17778252
0.16191591 0.15305775 0.14095773 0.13756502 0.1260653 0.11972436 0.11770982 0.109048
0.106621064 0.097323865 0.091907054 0.08711819 0.08426218 0.08239336 0.08061042 0.07507763
0.07158915 0.06715797 0.063759945 0.06264276 0.06097222 0.057414547 0.05662267 0.053996924
0.0528794 0.052237432 0.050188363 0.049440995 0.04796803 0.04759743 0.045574002 0.043848753
0.042835537 0.040998578 0.04033359 0.039744727 0.03879241 0.038140934 0.0376105 0.037083503
0.03537654 0.0347026 0.033434555 0.032641202 0.031979002 0.031081699 0.030832188 0.030444974
0.029952236 0.029335592 0.028769426 0.02830278 0.027884895 0.02696122 0.026499622 0.026145646
0.025549067 0.025469376 0.024928972 0.024565319 0.024179777 0.024188636 0.02397281 0.023291256
0.022705525 0.02250725 0.022213478 0.022031914 0.021736138 0.021330437 0.021202749 0.02086249
0.020780701 0.02063341 0.020124476 0.019599294 0.019414712 0.019210802 0.019005887 0.01880654
0.018320097 0.018065419 0.017931415 0.01747184
00000000: f125 2540 64b0 a53f aa3e 823f e61c 2f3f
00000010: 33cd 113f 6fa8 f53e a4eb de3e 7fc1 ca3e
00000020: e99c b63e 39b3 963e 9a28 863e 4de5 6f3e
00000030: bf1c 653e fb76 583e 6ee6 4e3e 9f0c 363e
00000040: 49cd 253e 2cbb 1c3e 3957 103e d8dd 0c3e
00000050: 4317 013e 0c32 f53d d911 f13d 8f54 df3d
00000060: 255c da3d bc51 c73d c439 bc3d 066b b23d
00000070: a691 ac3d dabd a83d 1317 a53d 4dc2 993d
00000080: 559d 923d 1e8a 893d 9394 823d d94a 803d
00000090: 02be 793d 842b 6b3d 2ced 673d e12b 5d3d
000000a0: 1298 583d ebf6 553d 5092 4d3d a482 4a3d
000000b0: 207a 443d 86f5 423d ceab 3a3d c09a 333d
000000c0: 5174 2f3d 20ee 273d d634 253d 5ecb 223d
000000d0: cae4 1e3d ab39 1c3d 780d 1a3d dfe4 173d
000000e0: fee6 103d 5024 0e3d acf2 083d c8b2 053d
000000f0: 6afc 023d 0c9f fe3c c993 fc3c bd67 f93c
00000100: 645e f53c 3251 f03c dcad eb3c 3bdb e73c
00000110: dd6e e43c c7dd dc3c bc15 d93c 652f d63c
00000120: 474c d13c 27a5 d03c d837 cc3c 353d c93c
00000130: ab14 c63c 3f27 c63c a062 c43c 4ecd be3c
00000140: f000 ba3c 2061 b83c 0af9 b53c 467c b43c
00000150: fc0f b23c 2bbd ae3c 63b1 ad3c d0e7 aa3c
00000160: 4a3c aa3c 6607 a93c 16dc a43c b38e a03c
00000170: 9a0b 9f3c f95f 9d3c 3cb2 9b3c 2c10 9a3c
00000180: 0714 963c eefd 933c e7e4 923c 1b21 8f3c

tabnet.encoder.initial_splitter.shared.shared_layers.0.weight f4 [96, 100]
1.5794729 0.5520366 -1.1751304 0.079400964 -0.738888 0.20748979 0.34898084 0.5518201
0.24585836 -0.9571528 0.025932072 0.11147424 -0.9115509 0.24111833 -1.5553379 0.13100332
-0.11025883 0.028553806 0.24518336 -0.40707928 0.19204605 -0.40651459 -0.4453439 -0.19151197
1.1811411 -0.68409276 -0.4079575 1.0414623 0.19318852 0.025748495 -0.23154935 -0.47971654
0.33208534 -0.040836103 -0.68366253 0.5212856 0.28197575 0.6960694 0.0041081756 -0.35269615
0.003764645 -0.060021393 0.0009573392 -0.09018917 0.11273728 -0.724073 -1.0013713 -1.0225624
0.699137 0.10321431 -0.15580185 0.8745176 -0.16214307 0.112081826 0.10504383 -0.614819
-0.003743423 0.095055975 0.2383032 -0.120314725 0.17656144 0.28159985 0.17389432 0.0340575
-0.22931656 -0.056616973 0.30349517 -0.4122643 -0.14018017 -0.019409886 0.047743827 -0.13758819
0.18559629 -0.31473964 0.37321752 -0.3231846 -0.39101183 0.14889833 0.25726047 -0.15561514
-0.28207165 -0.13104115 0.52156025 -0.22213227 -0.7691883 0.11601094 -0.15353122 0.44268408
-0.86285233 -0.36012053 -0.075303316 0.08377489 0.25293812 -0.5662352 0.2519437 -1.2005067
0.02531275 -0.441332 0.072233446 -0.31838784 0.2665298 0.80163276 0.15561222 0.63990355
-0.06112702 -0.3012592 0.7624291 0.33675763 0.098039776 -0.016449546 -0.20335317 0.9222669
0.18049501 0.5682477 -0.9753632 0.42638803 0.15206233 0.16263522 -0.88265085 -0.43633255
-0.4924029 0.07041334 0.6214428 -0.87437844 0.28419438 0.40500578 0.149985 -0.7609249
0.23586453 0.63246983 -0.16263929 -0.3495615 -0.4129188 0.080428645 0.7071173 -0.30047178
-0.5495939 0.8553426 -0.51799005 0.40332946 -0.40631264 -0.25496927 -1.025797 0.11199172
-1.0474735 -0.33126733 0.4701923 -0.15707925 -0.0042046015 -0.86524093 -0.6145568 0.39670306
0.049940597 0.16895851 -0.25119638 0.60322994 -0.23024157 0.5687873 0.5465715 -0.07199886
0.79006845 0.061144255 -0.8731754 -0.090089075 0.056529764 -0.6829013 -0.48780015 0.10045282
-0.37021333 -0.6601502 -0.07905602 -0.1520399 0.3826526 0.5886356 -0.12564845 0.30786762
0.35910177 -0.50111336 -0.21006422 0.289104 0.16296346 -0.81692237 1.0039866 0.66662085
0.3952628 0.11433737 -0.27532074 -0.25985122 -0.5341618 -0.5451319 -0.3030049 -0.11888465
-0.49472493 -0.26083454 -0.995798 -1.1473193 0.2979932 -0.031718448 0.15271783 0.04593696
0.41500425 0.25697294 0.24442574 -0.06516999 0.030929208 0.060134377 0.43548894 0.24406554
-0.31318602 0.444339 -0.31212595 0.607251 -0.5298377 -0.16335736 0.12731357 -1.594304
-0.42960933 0.19070521 0.23637064 0.2934863 0.04833441 1.3255882 -0.12618673 -0.74298066
-0.7827069 0.7105183 -0.5085041 0.0073762424 -0.08336579 0.42579737 -0.34653315 0.6004248
-0.09723333 0.064998135 -0.1263091 0.23905633 -0.33769506 0.45325726 -0.7256499 -0.410531
0.09739588 0.16338761 -0.3593007 0.38824832 0.67147803 0.21144477 -0.95889276 0.50971174
0.38750958 0.4517346 -0.15079334 -0.31821477 0.07344204 0.6201085 0.85223764 0.08163933
00000000: 2b2c ca3f 4552 0d3f ac6a 96bf f99c a23d
00000010: c427 3dbf 3478 543e 9ead b23e 1544 0d3f
00000020: 4bc2 7b3e f707 75bf 7f6f d43c 9b4c e43d
00000030: 665b 69bf b9e7 763e 5015 c7bf bc25 063e
00000040: 62cf e1bd ace9 e93c 5911 7b3e b26c d0be
00000050: b8a7 443e ae22 d0be 1e04 e4be b71b 44be
00000060: a22f 973f b420 2fbf cedf d0be a34e 853f
00000070: 36d3 453e 82ee d23c 461b 6dbe 689d f5be
00000080: 1707 aa3e c243 27bd 8204 2fbf f972 053f
00000090: 205f 903e 9b31 323f e09d 863b 9794 b4be
000000a0: 43b8 763b fed8 75bd f2f5 7a3a 19b5 b8bd
000000b0: cee2 e63d d95c 39bf ef2c 80bf 53e3 82bf
000000c0: a4fa 323f 0662 d33d 858a 1fbe 63e0 5f3f
000000d0: d508 26be 288b e53d 3821 d73d c764 1dbf
000000e0: 3754 75bb b5ac c23d c105 743e 9167 f6bd
000000f0: 86cc 343e db2d 903e 5a11 323e e17f 0b3d
00000100: f6d1 6abe 33e7 67bd b863 9b3e 4e14 d3be
00000110: 648b 0fbe 7b01 9fbc 088f 433d ebe3 0cbe
00000120: f40c 3e3e 8e25 a1be 5e16 bf3e 7478 a5be
00000130: b432 c8be ce78 183e a5b7 833e 9359 1fbe
00000140: b26b 90be a72f 06be f984 053f a476 63be
00000150: 86e9 44bf 2597 ed3d 4a37 1dbe 7da7 e23e
00000160: e4e3 5cbf b861 b8be a038 9abd 2b92 ab3d
00000170: 1b81 813e caf4 10bf c4fe 803e 34aa 99bf
00000180: af5c cf3c 45f6 e1be 21ef 933d bb03 a3be
00000190: 9876 883e ce37 4d3f cf58 1f3e b8d0 233f
000001a0: 5360 7abd a53e 9abe 8e2e 433f 7f6b ac3e
000001b0: 14c9 c83d 33c1 86bc d03b 50be af19 6c3f
000001c0: afd3 383e ae78 113f 67b1 79bf 884f da3e
000001d0: 3ab6 1b3e d989 263e 68f5 61bf fb66 dfbe
000001e0: 3c1c fcbe df34 903d e016 1f3f 44d7 5fbf
000001f0: ed81 913e eb5c cf3e ab95 193e f9cb 42bf
00000200: 7986 713e 8be9 213f ea8a 26be baf9 b2be
00000210: 186a d3be c6b7 a43d a405 353f 70d7 99be
00000220: 30b2 0cbf bcf7 5a3f ff9a 04bf 3381 ce3e
00000230: 3608 d0be 558b 82be 514d 83bf ea5b e53d
00000240: 9d13 86bf df9b a9be 0cbd f03e 62d9 20be
00000250: c1c6 89bb 6e80 5dbf 9853 1dbf aa1c cb3e
00000260: 838e 4c3d 7603 2d3e d09c 80be 476d 1a3f
00000270: 72c4 6bbe 0b9c 113f 1cec 0b3f 2374 93bd
00000280: ed41 4a3f 6672 7a3d 6c88 5fbf 9f80 b8bd
00000290: c18b 673d 9fd2 2ebf f1c0 f9be 35ba cd3d
000002a0: 9a8c bdbe 9aff 28bf 1fe8 a1bd 59b0 1bbe
000002b0: 0beb c33e d3b0 163f fda9 00be d3a0 9d3e
000002c0: 30dc b73e f748 00bf 131b 57be 7105 943e
000002d0: e5df 263e d321 51bf a282 803f aaa7 2a3f
000002e0: e35f ca3e b629 ea3d d7f6 8cbe 380b 85be
000002f0: d4be 08bf c48d 0bbf 7523 9bbe cc79 f3bd
00000300: 964c fdbe 1b8c 85be 9eec 7ebf 5cdb 92bf
00000310: 9192 983e 34eb 01bd 1062 1c3e 6528 3c3d
00000320: 707b d43e f591 833e be4a 7a3e d877 85bd
00000330: 405f fd3c 774f 763d 68f8 de3e 51ec 793e
00000340: eb59 a0be 6780 e33e f9ce 9fbe cd74 1b3f
00000350: 72a3 07bf 2747 27be 7d5e 023e 2712 ccbf
00000360: c1f5 dbbe 3a48 433e 250b 723e d643 963e
00000370: 4dfa 453d e0ac a93f 1837 01be fb33 3ebf
00000380: 7b5f 48bf 87e4 353f 532d 02bf 68b4 f13b
00000390: afbb aabd 1d02 da3e cb6c b1be 71b5 193f
000003a0: 4522 c7bd be1d 853d 2c57 01be 2fcb 743e
000003b0: 5ee6 acbe 5611 e83e 31c4 39bf 1f31 d2be
000003c0: 7e77 c73d 154f 273e 43f6 b7be 7cc8 c63e
000003d0: fce5 2b3f fa84 583e ff79 75bf 787c 023f
000003e0: a867 c63e c249 e73e 9269 1abe 0ced a2be
000003f0: c868 963d 6ebf 1e3f 3f2c 5a3f 8532 a73d

tabnet.encoder.initial_splitter.shared.shared_layers.1.weight f4 [96, 48]
0.53625095 1.0678859 0.59767056 -0.099229924 -0.12985152 0.5807726 -0.8231191 -0.28030556
-0.17437021 0.022266926 -0.56501895 0.42821223 -0.0129964715 -0.6549762 0.1452536 -0.8240149
0.75963396 0.110550895 0.005755745 -0.6476006 -0.5408527 0.81651396 0.5049224 1.3230735
0.001094921 -0.6379645 -1.0267458 -1.2967465 0.62849796 0.1832791 0.46542117 -0.78497154
0.34401888 0.44634447 0.67795706 0.72105336 0.10882707 -0.9900625 0.4307621 0.629403
-0.39415956 -0.56730515 0.045748383 -1.0128533 -0.1867317 -1.1650344 -0.094605014 -0.089431085
0.2841053 0.5575141 0.36811274 -0.92000604 0.8344436 -1.1364112 -0.02647148 0.03686039
-0.14870033 0.8081625 0.60145456 1.1037699 0.5207978 0.18034537 -0.53948253 0.0078028655
-0.068665616 0.46720827 -0.20451283 -0.28380603 -0.07147375 -0.75943696 -0.7435607 -0.13148439
0.13120912 -0.6802935 0.2843263 -0.33910844 -0.01887898 -0.22651686 0.13266447 0.5232614
-0.05510987 0.3581401 -0.23580292 -0.6025422 -0.06409445 -0.01825157 -0.30440506 0.96253574
1.1909813 -0.5130411 0.71617043 -0.59047467 0.92073035 -0.13347426 0.9799353 1.1281097
0.24724041 -0.6353948 -0.6481421 0.48355943 -0.89608747 -0.11928379 0.7414694 0.66886526
-0.9395335 -0.019655006 0.94952124 0.48570016 -0.08877952 0.48721913 0.5048937 -0.26282582
1.2610909 0.096310295 -0.46802604 0.60904545 -0.0603276 0.65464485 1.3049365 0.6328034
0.77272147 -0.046947885 -0.7806612 -0.011311831 -0.28482923 -0.54327065 -0.3654231 -0.31916818
-0.89357775 0.21979505 -0.13224451 -0.98536605 -0.015446112 0.36135405 -0.45140576 -0.99857837
0.15178996 1.1990604 -0.038220707 -0.91075927 0.57667965 0.8549008 -0.19121528 0.14097837
-1.0845548 0.1291554 -0.016904961 0.4765059 0.15484138 -0.16410902 0.33415958 -0.10145419
0.32749066 0.7086938 -0.113563254 0.90329796 1.1730862 0.25288224 -0.59072465 0.11934102
0.2704293 1.6367106 -0.21428348 0.21453746 -0.38533178 -0.16814458 0.218194 -0.16923246
-0.46459296 -0.14181873 -0.83347785 -0.22435705 -0.15883519 -0.52377135 0.3012965 0.31422755
0.13827471 0.6085529 -0.32417154 -0.18783657 -0.9087543 -0.057485327 0.64350617 0.036906555
0.54895175 0.3716453 1.2709123 1.2904931 -0.38095084 -1.1283654 -0.43003944 0.32985905
-0.28930497 -0.04081797 0.4496711 -0.74637926 0.46517095 -0.31046644 -0.049713954 0.19159701
0.10748654 0.13285759 -0.014413963 -0.7143428 0.7559296 -0.2362457 -0.306857 0.5692634
0.71835655 -0.37689108 0.31506756 -0.8744828 0.57705367 0.47743052 0.36456153 -0.71637064
0.6793855 -0.91148555 0.4391482 -0.34480554 -0.8653213 -0.04525895 0.25332582 -0.11778397
-0.32755095 -0.6255681 0.017517358 -0.5099366 0.39130008 0.26357687 -0.18778175 0.16448581
-0.08200557 -1.1600502 -0.3529083 1.0267655 0.35935545 0.11406494 0.03448424 0.014301685
0.418023 0.5826275 0.38338938 0.06874698 0.052727945 -0.06576873 1.0745641 -1.1813053
1.2258883 -0.35555723 -0.37508163 -0.2948576 -0.9032216 -0.5090983 0.46316355 0.5907502
00000000: be47 093f 7cb0 883f f000 193f 0f39 cbbd
00000010: ccf7 04be 83ad 143f efb7 52bf 3684 8fbe
00000020: 1b8e 32be 2169 b63c 15a5 10bf a23e db3e
00000030: 27ef 54bc 85ac 27bf 5cbd 143e a4f2 52bf
00000040: 5f77 423f 8268 e23d b09a bc3b 27c9 25bf
00000050: 5375 0abf 0f07 513f 9842 013f 795a a93f
00000060: 7483 8f3a a451 23bf 686c 83bf cafb a5bf
00000070: 3ee5 203f 84ad 3b3e af4b ee3e e5f3 48bf
00000080: 3e23 b03e 4387 e43e 988e 2d3f f496 383f
00000090: bae0 de3d bc74 7dbf da8c dc3e 8e20 213f
000000a0: 48cf c9be e93a 11bf a862 3b3d 2da5 81bf
000000b0: 9836 3fbe d91f 95bf 46c0 c1bd a527 b7bd
000000c0: 4076 913e 3eb9 0e3f 4679 bc3e 8485 6bbf
000000d0: 199e 553f ec75 91bf b8da d8bc ecfa 163d
000000e0: e644 18be bde3 4e3f edf8 193f 5548 8d3f
000000f0: 0153 053f 75ac 383e 871b 0abf 2eaf ff3b
00000100: 8fa0 8cbd ec35 ef3e d06b 51be 064f 91be
00000110: d460 92bd 766a 42bf fe59 3ebf d8a3 06be
00000120: af5b 063e b727 2ebf 3793 913e 9f9f adbe
00000130: 17a8 9abc 09f4 67be 32d9 073e 76f4 053f
00000140: e3ba 61bd 245e b73e 5276 71be 3540 1abf
00000150: f343 83bd 5184 95bc fbda 9bbe be68 763f
00000160: 1372 983f a956 03bf f256 373f 5929 17bf
00000170: fcb4 6b3f 7aad 08be 0add 7a3f e665 903f
00000180: 972c 7d3e 3ca9 22bf a4ec 25bf 1a95 f73e
00000190: fd65 65bf 0f4b f4bd f0d0 3d3f c13a 2b3f
000001a0: 4485 70bf 8903 a1bc d313 733f b1ad f83e
000001b0: 09d2 b5bd c974 f93e b740 013f 1b91 86be
000001c0: 6d6b a13f 553e c53d 1ca1 efbe 67ea 1b3f
000001d0: 131a 77bd ce96 273f 2908 a73f 67ff 213f
000001e0: 13d1 453f 6d4c 40bd 6ad9 47bf 4255 39bc
000001f0: 23d5 91be c913 0bbf bd18 bbbe 036a a3be
00000200: 83c1 64bf f411 613e 1b6b 07be f340 7cbf
00000210: b011 7dbc 6603 b93e a81e e7be d5a2 7fbf
00000220: d46e 1b3e d07a 993f 518d 1cbd 8527 69bf
00000230: 47a1 133f c7da 5a3f f0cd 43be a25c 103e
00000240: b1d2 8abf 5041 043e 467c 8abc 95f8 f33e
00000250: bd8e 1e3e 320c 28be f716 ab3e 37c7 cfbd
00000260: dbac a73e f56c 353f da93 e8bd 893e 673f
00000270: b027 963f c879 813e bb39 17bf 1169 f43d
00000280: b675 8a3e bc7f d13f 216d 5bbe b5af 5b3e
00000290: 354a c5be 182e 2cbe 3f6e 5f3e 464b 2dbe
000002a0: 21df edbe ee38 11be ce5e 55bf dbbd 65be
000002b0: b1a5 22be e115 06bf 8943 9a3e 6fe2 a03e
000002c0: e397 0d3e 1fca 1b3f d0f9 a5be 3b58 40be
000002d0: 1fa4 68bf bc75 6bbd d2bc 243f 542b 173d
000002e0: 1a88 0c3f 4b48 be3e 41ad a23f e12e a53f
000002f0: fd0b c3be 476e 90bf 212e dcbe 49e3 a83e
00000300: c81f 94be be30 27bd 4a3b e63e b612 3fbf
00000310: e32a ee3e 75f5 9ebe dca0 4bbd 0232 443e
00000320: e721 dc3d d20b 083e 8b28 6cbc 2bdf 36bf
00000330: 9a84 413f 65ea 71be 5c1c 9dbe 3fbb 113f
00000340: 37e6 373f def7 c0be 8950 a13e 1bde 5fbf
00000350: cab9 133f c671 f43e cfa7 ba3e 1164 37bf
00000360: 35ec 2d3f 1e57 69bf 08d8 e03e 5a8a b0be
00000370: b285 5dbf 7361 39bd ecb3 813e b938 f1bd
00000380: c2b4 a7be 3b25 20bf 9080 8f3c 348b 02bf
00000390: 7c58 c83e 8cf3 863e dc49 40be f86e 283e
000003a0: 89f2 a7bd 867c 94bf 66b0 b4be 0d6d 833f
000003b0: 70fd b73e e19a e93d 593f 0d3d 9d51 6a3c
000003c0: 1c07 d63e 1327 153f 9d4b c43e 37cb 8c3d
000003d0: 42f9 573d c2b1 86bd 518b 893f 0335 97bf
000003e0: e8e9 9c3f 990b b6be b30a c0be 93f7 96be
000003f0: 8839 67bf 4454 02bf c623 ed3e 683b 173f

tabnet.encoder.initial_splitter.shared.glu_layers.0.fc.weight f4 [96, 100]
1.5794729 0.5520366 -1.1751304 0.079400964 -0.738888 0.20748979 0.34898084 0.5518201
0.24585836 -0.9571528 0.025932072 0.11147424 -0.9115509 0.24111833 -1.5553379 0.13100332
-0.11025883 0.028553806 0.24518336 -0.40707928 0.19204605 -0.40651459 -0.4453439 -0.19151197
1.1811411 -0.68409276 -0.4079575 1.0414623 0.19318852 0.025748495 -0.23154935 -0.47971654
0.33208534 -0.040836103 -0.68366253 0.5212856 0.28197575 0.6960694 0.0041081756 -0.35269615
0.003764645 -0.060021393 0.0009573392 -0.09018917 0.11273728 -0.724073 -1.0013713 -1.0225624
0.699137 0.10321431 -0.15580185 0.8745176 -0.16214307 0.112081826 0.10504383 -0.614819
-0.003743423 0.095055975 0.2383032 -0.120314725 0.17656144 0.28159985 0.17389432 0.0340575
-0.22931656 -0.056616973 0.30349517 -0.4122643 -0.14018017 -0.019409886 0.047743827 -0.13758819
0.18559629 -0.31473964 0.37321752 -0.3231846 -0.39101183 0.14889833 0.25726047 -0.15561514
-0.28207165 -0.13104115 0.52156025 -0.22213227 -0.7691883 0.11601094 -0.15353122 0.44268408
-0.86285233 -0.36012053 -0.075303316 0.08377489 0.25293812 -0.5662352 0.2519437 -1.2005067
0.02531275 -0.441332 0.072233446 -0.31838784 0.2665298 0.80163276 0.15561222 0.63990355
-0.06112702 -0.3012592 0.7624291 0.33675763 0.098039776 -0.016449546 -0.20335317 0.9222669
0.18049501 0.5682477 -0.9753632 0.42638803 0.15206233 0.16263522 -0.88265085 -0.43633255
-0.4924029 0.07041334 0.6214428 -0.87437844 0.28419438 0.40500578 0.149985 -0.7609249
0.23586453 0.63246983 -0.16263929 -0.3495615 -0.4129188 0.080428645 0.7071173 -0.30047178
-0.5495939 0.8553426 -0.51799005 0.40332946 -0.40631264 -0.25496927 -1.025797 0.11199172
-1.0474735 -0.33126733 0.4701923 -0.15707925 -0.0042046015 -0.86524093 -0.6145568 0.39670306
0.049940597 0.16895851 -0.25119638 0.60322994 -0.23024157 0.5687873 0.5465715 -0.07199886
0.79006845 0.061144255 -0.8731754 -0.090089075 0.056529764 -0.6829013 -0.48780015 0.10045282
-0.37021333 -0.6601502 -0.07905602 -0.1520399 0.3826526 0.5886356 -0.12564845 0.30786762
0.35910177 -0.50111336 -0.21006422 0.289104 0.16296346 -0.81692237 1.0039866 0.66662085
0.3952628 0.11433737 -0.27532074 -0.25985122 -0.5341618 -0.5451319 -0.3030049 -0.11888465
-0.49472493 -0.26083454 -0.995798 -1.1473193 0.2979932 -0.031718448 0.15271783 0.04593696
0.41500425 0.25697294 0.24442574 -0.06516999 0.030929208 0.060134377 0.43548894 0.24406554
-0.31318602 0.444339 -0.31212595 0.607251 -0.5298377 -0.16335736 0.12731357 -1.594304
-0.42960933 0.19070521 0.23637064 0.2934863 0.04833441 1.3255882 -0.12618673 -0.74298066
-0.7827069 0.7105183 -0.5085041 0.0073762424 -0.08336579 0.42579737 -0.34653315 0.6004248
-0.09723333 0.064998135 -0.1263091 0.23905633 -0.33769506 0.45325726 -0.7256499 -0.410531
0.09739588 0.16338761 -0.3593007 0.38824832 0.67147803 0.21144477 -0.95889276 0.50971174
0.38750958 0.4517346 -0.15079334 -0.31821477 0.07344204 0.6201085 0.85223764 0.08163933
00000000: 2b2c ca3f 4552 0d3f ac6a 96bf f99c a23d
00000010: c427 3dbf 3478 543e 9ead b23e 1544 0d3f
00000020: 4bc2 7b3e f707 75bf 7f6f d43c 9b4c e43d
00000030: 665b 69bf b9e7 763e 5015 c7bf bc25 063e
00000040: 62cf e1bd ace9 e93c 5911 7b3e b26c d0be
00000050: b8a7 443e ae22 d0be 1e04 e4be b71b 44be
00000060: a22f 973f b420 2fbf cedf d0be a34e 853f
00000070: 36d3 453e 82ee d23c 461b 6dbe 689d f5be
00000080: 1707 aa3e c243 27bd 8204 2fbf f972 053f
00000090: 205f 903e 9b31 323f e09d 863b 9794 b4be
000000a0: 43b8 763b fed8 75bd f2f5 7a3a 19b5 b8bd
000000b0: cee2 e63d d95c 39bf ef2c 80bf 53e3 82bf
000000c0: a4fa 323f 0662 d33d 858a 1fbe 63e0 5f3f
000000d0: d508 26be 288b e53d 3821 d73d c764 1dbf
000000e0: 3754 75bb b5ac c23d c105 743e 9167 f6bd
000000f0: 86cc 343e db2d 903e 5a11 323e e17f 0b3d
00000100: f6d1 6abe 33e7 67bd b863 9b3e 4e14 d3be
00000110: 648b 0fbe 7b01 9fbc 088f 433d ebe3 0cbe
00000120: f40c 3e3e 8e25 a1be 5e16 bf3e 7478 a5be
00000130: b432 c8be ce78 183e a5b7 833e 9359 1fbe
00000140: b26b 90be a72f 06be f984 053f a476 63be
00000150: 86e9 44bf 2597 ed3d 4a37 1dbe 7da7 e23e
00000160: e4e3 5cbf b861 b8be a038 9abd 2b92 ab3d
00000170: 1b81 813e caf4 10bf c4fe 803e 34aa 99bf
00000180: af5c cf3c 45f6 e1be 21ef 933d bb03 a3be
00000190: 9876 883e ce37 4d3f cf58 1f3e b8d0 233f
000001a0: 5360 7abd a53e 9abe 8e2e 433f 7f6b ac3e
000001b0: 14c9 c83d 33c1 86bc d03b 50be af19 6c3f
000001c0: afd3 383e ae78 113f 67b1 79bf 884f da3e
000001d0: 3ab6 1b3e d989 263e 68f5 61bf fb66 dfbe
000001e0: 3c1c fcbe df34 903d e016 1f3f 44d7 5fbf
000001f0: ed81 913e eb5c cf3e ab95 193e f9cb 42bf
00000200: 7986 713e 8be9 213f ea8a 26be baf9 b2be
00000210: 186a d3be c6b7 a43d a405 353f 70d7 99be
00000220: 30b2 0cbf bcf7 5a3f ff9a 04bf 3381 ce3e
00000230: 3608 d0be 558b 82be 514d 83bf ea5b e53d
00000240: 9d13 86bf df9b a9be 0cbd f03e 62d9 20be
00000250: c1c6 89bb 6e80 5dbf 9853 1dbf aa1c cb3e
00000260: 838e 4c3d 7603 2d3e d09c 80be 476d 1a3f
00000270: 72c4 6bbe 0b9c 113f 1cec 0b3f 2374 93bd
00000280: ed41 4a3f 6672 7a3d 6c88 5fbf 9f80 b8bd
00000290: c18b 673d 9fd2 2ebf f1c0 f9be 35ba cd3d
000002a0: 9a8c bdbe 9aff 28bf 1fe8 a1bd 59b0 1bbe
000002b0: 0beb c33e d3b0 163f fda9 00be d3a0 9d3e
000002c0: 30dc b73e f748 00bf 131b 57be 7105 943e
000002d0: e5df 263e d321 51bf a282 803f aaa7 2a3f
000002e0: e35f ca3e b629 ea3d d7f6 8cbe 380b 85be
000002f0: d4be 08bf c48d 0bbf 7523 9bbe cc79 f3bd
00000300: 964c fdbe 1b8c 85be 9eec 7ebf 5cdb 92bf
00000310: 9192 983e 34eb 01bd 1062 1c3e 6528 3c3d
00000320: 707b d43e f591 833e be4a 7a3e d877 85bd
00000330: 405f fd3c 774f 763d 68f8 de3e 51ec 793e
00000340: eb59 a0be 6780 e33e f9ce 9fbe cd74 1b3f
00000350: 72a3 07bf 2747 27be 7d5e 023e 2712 ccbf
00000360: c1f5 dbbe 3a48 433e 250b 723e d643 963e
00000370: 4dfa 453d e0ac a93f 1837 01be fb33 3ebf
00000380: 7b5f 48bf 87e4 353f 532d 02bf 68b4 f13b
00000390: afbb aabd 1d02 da3e cb6c b1be 71b5 193f
000003a0: 4522 c7bd be1d 853d 2c57 01be 2fcb 743e
000003b0: 5ee6 acbe 5611 e83e 31c4 39bf 1f31 d2be
000003c0: 7e77 c73d 154f 273e 43f6 b7be 7cc8 c63e
000003d0: fce5 2b3f fa84 583e ff79 75bf 787c 023f
000003e0: a867 c63e c249 e73e 9269 1abe 0ced a2be
000003f0: c868 963d 6ebf 1e3f 3f2c 5a3f 8532 a73d

tabnet.encoder.initial_splitter.shared.glu_layers.0.bn.bn.weight f4 [96]
1.3557068 1.0395002 0.6441688 0.8878216 1.3311957 0.795489 0.85367674 1.2518293
1.0209459 0.8378763 0.81356066 0.9211158 1.7277145 0.59176636 0.5195091 0.8102824
0.9720406 1.1000361 1.2307885 0.9116227 0.89561075 0.8270635 1.0410651 0.8391191
0.6479921 1.0275521 0.9907099 1.3220782 0.9431547 0.8845798 1.5531771 1.0150604
0.94686955 0.30333868 0.8742247 1.0586684 0.87679183 1.5363847 0.7801671 1.4424087
1.1995246 1.0131457 0.67589706 1.2859652 1.0166448 1.118696 0.9564941 1.0757822
1.0038413 1.790155 1.1702372 1.1472002 0.714172 1.5639424 0.5392268 1.2119389
1.2764956 1.4207805 1.398077 0.6691669 0.30831724 0.9116341 0.84817797 0.83451
0.4600958 0.651042 1.418587 0.71598476 0.77364475 0.6262664 1.0770473 1.0921986
1.1087474 1.2179288 1.3079567 1.2165395 0.68619186 1.1429948 1.2309892 1.1906773
0.3072903 0.17290232 1.2086277 0.8736686 0.5644391 0.8046936 1.210596 0.5537697
0.580741 0.7626865 1.0325576 0.33383617 0.95371944 0.9480901 1.343512 0.99583435
00000000: cd87 ad3f 580e 853f 3fe8 243f 4748 633f
00000010: 9f64 aa3f 2ba5 4b3f 8f8a 5a3f f13b a03f
00000020: 5bae 823f 107f 563f 8345 503f 3fce 6b3f
00000030: c025 dd3f 007e 173f 8cfe 043f ab6e 4f3f
00000040: a7d7 783f fccd 8c3f 7a8a 9d3f 1b60 693f
00000050: bf46 653f 6fba 533f 9f41 853f 82d0 563f
00000060: cfe2 253f d486 833f 2a9f 7d3f dc39 a93f
00000070: 9672 713f d273 623f 82ce c63f 80ed 813f
00000080: 0b66 723f 354f 9b3e 31cd 5f3f 7282 873f
00000090: 6e75 603f 41a8 c43f 08b9 473f d9a0 b83f
000000a0: 068a 993f c2ae 813f 9707 2d3f 829a a43f
000000b0: 6b21 823f 6e31 8f3f ccdc 743f 3bb3 893f
000000c0: df7d 803f cd23 e53f 55ca 953f 75d7 923f
000000d0: fad3 363f 442f c83f c40a 0a3f d020 9b3f
000000e0: 3564 a33f 23dc b53f 30f4 b23f 864e 2b3f
000000f0: c2db 9d3e da60 693f 3122 593f 73a2 553f
00000100: ad91 eb3e b0aa 263f 4294 b53f c74a 373f
00000110: 950d 463f ff52 203f b0dc 893f 2acd 8b3f
00000120: 6feb 8d3f 17e5 9b3f 206b a73f 91b7 9b3f
00000130: 45aa 2f3f a74d 923f 0e91 9d3f 1d68 983f
00000140: 2755 9d3e 4e0d 313e 50b4 9a3f bfa8 5f3f
00000150: 157f 103f 6600 4e3f cff4 9a3f dac3 0d3f
00000160: 71ab 143f 6c3f 433f d92a 843f 93ec aa3e
00000170: f526 743f 08b6 723f 34f8 ab3f 00ef 7e3f

tabnet.encoder.initial_splitter.shared.glu_layers.0.bn.bn.bias f4 [96]
0.1566952 -0.29032663 0.072234884 -0.376007 1.3000226 1.0031261 0.009971018 0.40454277
-0.4544709 -0.08100229 0.8690961 0.2915707 0.2624047 0.3713902 -0.009794912 -0.5031317
-0.13739775 0.76656073 -0.1626416 -0.3033444 -0.2233821 -0.22519577 -0.043262772 -0.15216352
-0.020571692 -0.07494253 -0.14789173 -0.21751313 0.0920649 0.066473834 0.065722175 -0.6147107
0.07103548 -0.095515974 -0.34547317 -0.56483334 0.286974 -0.11711859 0.28720126 -0.15436018
0.009844449 0.333655 -0.27161056 0.6006926 -0.48982087 0.012856891 0.052800424 -0.053639866
0.56369436 -0.5125168 -0.46548477 -0.039157335 0.7664443 -0.22155343 0.07989613 0.49103546
0.007821369 -0.4241757 0.02189994 0.100588046 0.57450527 -0.46595547 -0.41373935 0.09556968
0.017198758 0.13866614 0.26595852 0.016956942 -0.23036498 -0.054671507 -0.0061780745 -0.13448192
-0.21714476 -0.19594023 -0.15684493 0.29355702 0.1696003 -0.28094324 0.41423893 0.113833174
0.09160151 -0.53148615 -0.054868396 0.08753634 -0.06840733 0.5855301 -0.45070487 0.7118871
0.4337441 -0.018571282 -0.39955357 0.52530074 0.05040286 -0.093334034 -0.27460244 -0.1419921
00000000: b574 203e b1a5 94be e2ef 933d fd83 c0be
00000010: 2467 a63f 7066 803f 7b5d 233c 3b20 cf3e
00000020: 69b0 e8be 87e4 a5bd 157d 5e3f c148 953e
00000030: e959 863e db26 be3e d77a 20bc 3dcd 00bf
00000040: ffb1 0cbe 533d 443f 858b 26be f54f 9bbe
00000050: 47be 64be b899 66be 4e34 31bd c1d0 1bbe
00000060: f785 a8bc 787b 99bd ee70 17be c3bb 5ebe
00000070: 868c bc3d 6f23 883d 5999 863d ae5d 1dbf
00000080: 0d7b 913d e19d c3bd dce1 b0be eb98 10bf
00000090: 42ee 923e dfdb efbd 0b0c 933e 9810 1ebe
000000a0: 9d4a 213c d4d4 aa3e 8a10 8bbe fdc6 193f
000000b0: cdc9 fabe b6a5 523c 4245 583d 7ab5 5bbd
000000c0: 464e 103f 4d34 03bf 0554 eebe 7163 20bd
000000d0: b235 443f e7de 62be 95a0 a33d 0069 fb3e
000000e0: 3325 003c 8f2d d9be 8167 b33c 1b01 ce3d
000000f0: c712 133f b791 eebe a5d5 d3be 09ba c33d
00000100: 69e4 8c3c 7ffe 0d3e b72b 883e 49e9 8a3c
00000110: cce4 6bbe 3bef 5fbd 7271 cabb a1b5 09be
00000120: 325b 5ebe 8ea4 48be f59b 20be 1b4d 963e
00000130: b3ab 2d3e cbd7 8fbe 2017 d43e 5e21 e93d
00000140: 9399 bb3d 7a0f 08bf afbd 60bd 4146 b33d
00000150: 2419 8cbd 4de5 153f cac2 e6be 3c3e 363f
00000160: b513 de3e cd22 98bc 4992 ccbe 1c7a 063f
00000170: 3b73 4e3d ea25 bfbd b198 8cbe 6166 11be

tabnet.encoder.initial_splitter.shared.glu_layers.0.bn.bn.running_mean f4 [96]
-10.186882 -7.6625447 -2.6109984 -2.5450227 -8.889059 -6.5556774 0.6551148 2.4102669
-5.355933 -1.060393 3.0598576 -3.0489914 6.8768344 3.4514909 -4.8353653 -2.203164
5.8470654 6.44628 -3.1755147 -6.145712 0.6734613 -7.6350822 0.118372224 -8.287344
3.2393806 -0.06661428 3.7131371 5.256813 -6.085623 -2.4412816 -2.426901 9.815118
-7.037705 2.4127927 -4.7226086 -2.6772747 7.0937552 3.2560122 -6.427348 -2.636247
1.0908601 4.663591 5.592614 5.794736 0.29173553 3.3012042 -5.652168 2.0131269
-2.5054595 -6.8274527 6.886245 -7.349173 6.3424387 -4.898512 -1.1337428 -5.616808
4.6648564 -2.3228216 -0.01247166 0.8605022 -3.2041175 0.1270204 -6.25757 -9.813002
2.8037393 2.5492501 5.400153 3.9875002 8.606592 -1.7591014 1.6352197 4.8088646
0.89830387 -2.783101 0.88166946 -0.92906934 -2.7203162 -0.64991426 -4.8781023 -3.2675707
3.2038946 8.221857 -3.3415697 -2.7588685 0.39931133 -6.496055 -6.38261 -4.046784
-1.782337 -1.5831802 1.7658101 3.1533475 8.944398 2.8353314 -2.9514203 -5.4710727
00000000: 78fd 22c1 9133 f5c0 991a 27c0 a7e1 22c0
00000010: 9639 0ec1 1cc8 d1c0 9bb5 273f d041 1a40
00000020: ce63 abc0 f5ba 87bf b5d4 4340 ad22 43c0
00000030: 070f dc40 3ae5 5c40 50bb 9ac0 a400 0dc0
00000040: 291b bb40 ed47 ce40 a23b 4bc0 aca9 c4c0
00000050: f667 2c3f 9852 f4c0 236d f23d f698 04c1
00000060: 0352 4f40 116d 88bd 0aa4 6d40 d037 a840
00000070: 6cbd c2c0 f53d 1cc0 5952 1bc0 b90a 1d41
00000080: e134 e1c0 326b 1a40 9c1f 97c0 7858 2bc0
00000090: 0b00 e340 8162 5040 d6ac cdc0 45b8 28c0
000000a0: 4ea1 8b3f 233c 9540 b2f6 b240 7a6e b940
000000b0: 5c5e 953e ee46 5340 8fde b4c0 12d7 0040
000000c0: 7359 20c0 7e7a dac0 1e5c dc40 6d2c ebc0
000000d0: 42f5 ca40 9cc0 9cc0 7c1e 91bf e4bc b3c0
000000e0: 8146 9540 1ca9 14c0 ef55 4cbc df49 5c3f
000000f0: 4310 4dc0 a311 023e 033e c8c0 0e02 1dc1
00000100: 7770 3340 ea26 2340 0ece ac40 3433 7f40
00000110: 9ab4 0941 3c2a e1bf e14e d13f 38e2 9940
00000120: 3ef7 653f 541e 32c0 17b5 613f 7dd7 6dbf
00000130: a919 2ec0 c860 26bf 6a19 9cc0 e11f 51c0
00000140: 9c0c 4d40 ba8c 0341 47dc 55c0 4d91 30c0
00000150: 8972 cc3e afdf cfc0 573e ccc0 417f 81c0
00000160: 9e23 e4bf a6a5 cabf 1106 e23f 72d0 4940
00000170: 411c 0f41 1276 3540 12e4 3cc0 0713 afc0

tabnet.encoder.initial_splitter.shared.glu_layers.0.bn.bn.running_var f4 [96]
33.649704 25.424486 23.212904 31.450693 39.924248 32.818356 25.976242 38.412163
30.388166 23.491508 31.692497 30.845404 64.86077 24.227495 24.401136 30.791016
35.286335 36.428818 40.354828 30.928526 34.726727 23.868994 23.221815 30.453745
21.664127 21.72162 27.624767 30.714703 22.336243 23.266895 35.33426 26.098473
26.091747 22.335289 34.76751 29.247747 28.80012 44.651474 26.75918 37.527813
33.082684 21.726484 27.770956 38.714703 30.03403 32.341003 26.556183 30.551104
28.654211 28.035494 29.651613 29.172337 30.739357 32.389423 28.459179 33.314632
22.396986 24.755405 29.9199 27.629719 34.729706 24.539522 26.121561 28.1698
27.536657 31.086908 39.38456 28.007364 24.184128 23.837324 26.302687 24.348923
28.283895 27.623375 23.552624 26.013538 28.42099 25.170862 30.413626 22.276806
31.862488 15.9810915 19.164469 35.496956 30.3445 37.018158 27.803328 30.627262
31.701685 21.293541 34.23071 28.877037 24.712687 26.751133 23.76972 35.45212
00000000: 4c99 0642 5965 cb41 07b4 b941 059b fb41
00000010: 6eb2 1f42 ff45 0342 58cf cf41 0ea6 1942
00000020: f71a f341 9cee bb41 3c8a fd41 63c3 f641
00000030: b7b8 8142 e9d1 c141 8735 c341 0054 f641
00000040: 3525 0d42 1cb7 1142 586b 2142 9f6d f741
00000050: 2be8 0a42 b3f3 be41 47c6 b941 45a1 f341
00000060: 2250 ad41 e1c5 ad41 86ff dc41 b6b7 f541
00000070: a0b0 b241 9a22 ba41 4856 0d42 acc9 d041
00000080: e6bb d041 acae b241 ee11 0b42 63fb e941
00000090: a566 e641 1c9b 3242 cd12 d641 7b1c 1642
000000a0: ab54 0442 d7cf ad41 eb2a de41 dbdb 1a42
000000b0: b245 f041 305d 0142 1073 d441 a968 f441
000000c0: d33b e541 b148 e041 8136 ed41 f260 e941
000000d0: 34ea f541 c58e 0142 66ac e341 2f42 0542
000000e0: 072d b341 120b c641 f55b ef41 aa09 dd41
000000f0: 38eb 0a42 f150 c441 f5f8 d041 c05b e141
00000100: 134b dc41 fdb1 f841 ca89 1d42 150f e041
00000110: 1879 c141 d7b2 be41 e76b d241 98ca c241
00000120: 6b45 e241 acfc dc41 c66b bc41 ba1b d041
00000130: 305e e341 ed5d c941 1b4f f341 e636 b241
00000140: 60e6 fe41 8db2 7f41 d550 9941 e2fc 0d42
00000150: 89c1 f241 9812 1442 376d de41 a204 f541
00000160: 0d9d fd41 2c59 aa41 3fec 0842 2c04 e741
00000170: 95b3 c541 5202 d641 6328 be41 f9ce 0d42

tabnet.encoder.initial_splitter.shared.glu_layers.1.fc.weight f4 [96, 48]
0.53625095 1.0678859 0.59767056 -0.099229924 -0.12985152 0.5807726 -0.8231191 -0.28030556
-0.17437021 0.022266926 -0.56501895 0.42821223 -0.0129964715 -0.6549762 0.1452536 -0.8240149
0.75963396 0.110550895 0.005755745 -0.6476006 -0.5408527 0.81651396 0.5049224 1.3230735
0.001094921 -0.6379645 -1.0267458 -1.2967465 0.62849796 0.1832791 0.46542117 -0.78497154
0.34401888 0.44634447 0.67795706 0.72105336 0.10882707 -0.9900625 0.4307621 0.629403
-0.39415956 -0.56730515 0.045748383 -1.0128533 -0.1867317 -1.1650344 -0.094605014 -0.089431085
0.2841053 0.5575141 0.36811274 -0.92000604 0.8344436 -1.1364112 -0.02647148 0.03686039
-0.14870033 0.8081625 0.60145456 1.1037699 0.5207978 0.18034537 -0.53948253 0.0078028655
-0.068665616 0.46720827 -0.20451283 -0.28380603 -0.07147375 -0.75943696 -0.7435607 -0.13148439
0.13120912 -0.6802935 0.2843263 -0.33910844 -0.01887898 -0.22651686 0.13266447 0.5232614
-0.05510987 0.3581401 -0.23580292 -0.6025422 -0.06409445 -0.01825157 -0.30440506 0.96253574
1.1909813 -0.5130411 0.71617043 -0.59047467 0.92073035 -0.13347426 0.9799353 1.1281097
0.24724041 -0.6353948 -0.6481421 0.48355943 -0.89608747 -0.11928379 0.7414694 0.66886526
-0.9395335 -0.019655006 0.94952124 0.48570016 -0.08877952 0.48721913 0.5048937 -0.26282582
1.2610909 0.096310295 -0.46802604 0.60904545 -0.0603276 0.65464485 1.3049365 0.6328034
0.77272147 -0.046947885 -0.7806612 -0.011311831 -0.28482923 -0.54327065 -0.3654231 -0.31916818
-0.89357775 0.21979505 -0.13224451 -0.98536605 -0.015446112 0.36135405 -0.45140576 -0.99857837
0.15178996 1.1990604 -0.038220707 -0.91075927 0.57667965 0.8549008 -0.19121528 0.14097837
-1.0845548 0.1291554 -0.016904961 0.4765059 0.15484138 -0.16410902 0.33415958 -0.10145419
0.32749066 0.7086938 -0.113563254 0.90329796 1.1730862 0.25288224 -0.59072465 0.11934102
0.2704293 1.6367106 -0.21428348 0.21453746 -0.38533178 -0.16814458 0.218194 -0.16923246
-0.46459296 -0.14181873 -0.83347785 -0.22435705 -0.15883519 -0.52377135 0.3012965 0.31422755
0.13827471 0.6085529 -0.32417154 -0.18783657 -0.9087543 -0.057485327 0.64350617 0.036906555
0.54895175 0.3716453 1.2709123 1.2904931 -0.38095084 -1.1283654 -0.43003944 0.32985905
-0.28930497 -0.04081797 0.4496711 -0.74637926 0.46517095 -0.31046644 -0.049713954 0.19159701
0.10748654 0.13285759 -0.014413963 -0.7143428 0.7559296 -0.2362457 -0.306857 0.5692634
0.71835655 -0.37689108 0.31506756 -0.8744828 0.57705367 0.47743052 0.36456153 -0.71637064
0.6793855 -0.91148555 0.4391482 -0.34480554 -0.8653213 -0.04525895 0.25332582 -0.11778397
-0.32755095 -0.6255681 0.017517358 -0.5099366 0.39130008 0.26357687 -0.18778175 0.16448581
-0.08200557 -1.1600502 -0.3529083 1.0267655 0.35935545 0.11406494 0.03448424 0.014301685
0.418023 0.5826275 0.38338938 0.06874698 0.052727945 -0.06576873 1.0745641 -1.1813053
1.2258883 -0.35555723 -0.37508163 -0.2948576 -0.9032216 -0.5090983 0.46316355 0.5907502
00000000: be47 093f 7cb0 883f f000 193f 0f39 cbbd
00000010: ccf7 04be 83ad 143f efb7 52bf 3684 8fbe
00000020: 1b8e 32be 2169 b63c 15a5 10bf a23e db3e
00000030: 27ef 54bc 85ac 27bf 5cbd 143e a4f2 52bf
00000040: 5f77 423f 8268 e23d b09a bc3b 27c9 25bf
00000050: 5375 0abf 0f07 513f 9842 013f 795a a93f
00000060: 7483 8f3a a451 23bf 686c 83bf cafb a5bf
00000070: 3ee5 203f 84ad 3b3e af4b ee3e e5f3 48bf
00000080: 3e23 b03e 4387 e43e 988e 2d3f f496 383f
00000090: bae0 de3d bc74 7dbf da8c dc3e 8e20 213f
000000a0: 48cf c9be e93a 11bf a862 3b3d 2da5 81bf
000000b0: 9836 3fbe d91f 95bf 46c0 c1bd a527 b7bd
000000c0: 4076 913e 3eb9 0e3f 4679 bc3e 8485 6bbf
000000d0: 199e 553f ec75 91bf b8da d8bc ecfa 163d
000000e0: e644 18be bde3 4e3f edf8 193f 5548 8d3f
000000f0: 0153 053f 75ac 383e 871b 0abf 2eaf ff3b
00000100: 8fa0 8cbd ec35 ef3e d06b 51be 064f 91be
00000110: d460 92bd 766a 42bf fe59 3ebf d8a3 06be
00000120: af5b 063e b727 2ebf 3793 913e 9f9f adbe
00000130: 17a8 9abc 09f4 67be 32d9 073e 76f4 053f
00000140: e3ba 61bd 245e b73e 5276 71be 3540 1abf
00000150: f343 83bd 5184 95bc fbda 9bbe be68 763f
00000160: 1372 983f a956 03bf f256 373f 5929 17bf
00000170: fcb4 6b3f 7aad 08be 0add 7a3f e665 903f
00000180: 972c 7d3e 3ca9 22bf a4ec 25bf 1a95 f73e
00000190: fd65 65bf 0f4b f4bd f0d0 3d3f c13a 2b3f
000001a0: 4485 70bf 8903 a1bc d313 733f b1ad f83e
000001b0: 09d2 b5bd c974 f93e b740 013f 1b91 86be
000001c0: 6d6b a13f 553e c53d 1ca1 efbe 67ea 1b3f
000001d0: 131a 77bd ce96 273f 2908 a73f 67ff 213f
000001e0: 13d1 453f 6d4c 40bd 6ad9 47bf 4255 39bc
000001f0: 23d5 91be c913 0bbf bd18 bbbe 036a a3be
00000200: 83c1 64bf f411 613e 1b6b 07be f340 7cbf
00000210: b011 7dbc 6603 b93e a81e e7be d5a2 7fbf
00000220: d46e 1b3e d07a 993f 518d 1cbd 8527 69bf
00000230: 47a1 133f c7da 5a3f f0cd 43be a25c 103e
00000240: b1d2 8abf 5041 043e 467c 8abc 95f8 f33e
00000250: bd8e 1e3e 320c 28be f716 ab3e 37c7 cfbd
00000260: dbac a73e f56c 353f da93 e8bd 893e 673f
00000270: b027 963f c879 813e bb39 17bf 1169 f43d
00000280: b675 8a3e bc7f d13f 216d 5bbe b5af 5b3e
00000290: 354a c5be 182e 2cbe 3f6e 5f3e 464b 2dbe
000002a0: 21df edbe ee38 11be ce5e 55bf dbbd 65be
000002b0: b1a5 22be e115 06bf 8943 9a3e 6fe2 a03e
000002c0: e397 0d3e 1fca 1b3f d0f9 a5be 3b58 40be
000002d0: 1fa4 68bf bc75 6bbd d2bc 243f 542b 173d
000002e0: 1a88 0c3f 4b48 be3e 41ad a23f e12e a53f
000002f0: fd0b c3be 476e 90bf 212e dcbe 49e3 a83e
00000300: c81f 94be be30 27bd 4a3b e63e b612 3fbf
00000310: e32a ee3e 75f5 9ebe dca0 4bbd 0232 443e
00000320: e721 dc3d d20b 083e 8b28 6cbc 2bdf 36bf
00000330: 9a84 413f 65ea 71be 5c1c 9dbe 3fbb 113f
00000340: 37e6 373f def7 c0be 8950 a13e 1bde 5fbf
00000350: cab9 133f c671 f43e cfa7 ba3e 1164 37bf
00000360: 35ec 2d3f 1e57 69bf 08d8 e03e 5a8a b0be
00000370: b285 5dbf 7361 39bd ecb3 813e b938 f1bd
00000380: c2b4 a7be 3b25 20bf 9080 8f3c 348b 02bf
00000390: 7c58 c83e 8cf3 863e dc49 40be f86e 283e
000003a0: 89f2 a7bd 867c 94bf 66b0 b4be 0d6d 833f
000003b0: 70fd b73e e19a e93d 593f 0d3d 9d51 6a3c
000003c0: 1c07 d63e 1327 153f 9d4b c43e 37cb 8c3d
000003d0: 42f9 573d c2b1 86bd 518b 893f 0335 97bf
000003e0: e8e9 9c3f 990b b6be b30a c0be 93f7 96be
000003f0: 8839 67bf 4454 02bf c623 ed3e 683b 173f
